ayala-module.pth (torch, 586047 bytes, 10 tensors)

model.0.weight f4 [32, 3, 5, 5]
00000000: c480 2f3d a5db a23d ca12 f23d 3352 063e
00000010: 5c4e 3abc 5e71 42bd 2fa8 113e 7c73 343e
00000020: 135e 283e 3724 d23d afc6 0abe 932d bebd
00000030: 5ff5 03be fdf8 08be 41cc 4b3d 4ec4 20be
00000040: af2e 5bbe 5309 babe a162 58be 926c 1bbe
00000050: 0528 ebbd 3c9a bcbd e7b2 35bd 6734 fcbd
00000060: af99 a73d 8c46 d1bd 80c9 173d c4c9 41bd
00000070: e1ad 68bd 2d46 eebc b509 053e 0f45 fd3d
00000080: 52ee 3e3e e8af 4f3e 4452 063e 2098 0abe
00000090: fc69 5abe ce64 49be 8579 223d 3104 d5bd
000000a0: 136b 15be 0d29 96be 6e4c 99be 2f23 7cbe
000000b0: 04a3 62be 04be 2e3c 7f30 85bc c069 d63c
000000c0: eec8 2c3d 1856 dabd 46e2 2f3e baa4 643e
000000d0: 3261 463e 4c2d 2e3e 344f 9fbc 605f 5b3e
000000e0: 09d1 a13e b851 b63e 426a 1e3e be14 0f3e
000000f0: f526 fd3d 777b 443e b391 063e 2e94 bd3d
00000100: a8f2 ac3d 909a e73d 990e d2bd 677a 22be
00000110: 8747 20be 88cb a03d 5249 c13d b412 ef3d
00000120: dbc3 733d 0d01 dc3d 47f8 da3d 6533 a5bd
00000130: ef10 09bd 86b2 4f3d 5acb 9c3d bda1 1cbe
00000140: 0e93 cabd f450 adbd 5d4b 533e 7ec3 b23d
00000150: 469a 29be b1f7 673c 6270 0fbd 0ba4 a53e
00000160: 0aa8 33bd 0693 f5bd e28a 1fbd b2f7 33be
00000170: 9fc9 883e 8e1f 0d3e f440 1ebe 2d79 1c3d
00000180: 0eb8 38be 5e79 1f3e 0060 293e 6db2 18be
00000190: 930c 09be 6620 6f3d dd12 683e 3e95 f5bc
000001a0: 5d77 f0bd 6d8d a0bd 998c a6bc bfed 593e
000001b0: e5aa cebc 94cf 78be 414d 24be 505f 5abe
000001c0: f413 a73e c705 443c 8237 28be 0043 e83b
000001d0: d147 3ebe 66dd 9f3e cab3 9fbd ef88 ecbd
000001e0: b78c 30bd 6e21 d23c 6525 063e fb3d 973d
000001f0: 8a0c 0bbc dc6e 833d 81e6 593d e642 013d
00000200: 92d3 393d 38db 89bc 72f0 cbbd ccbd cfbd
00000210: 0d90 813e d179 66bd ad0c 8dbd 1e67 b0bd
00000220: 04d5 ddbd 8673 8f3e 612b 133d a8ee 3ebe
00000230: ef4e f9bd 4e1d 81bd d36a 963e 2f88 843d
00000240: edec 37be 7c2f 45bc bb23 a5bd fa0b c63d
00000250: 6ffd 87bc d093 13be 4b10 2cbc 5b96 8b3d
00000260: 84ad 193d 908f 533d eaf9 3cbd cbbf 883d
00000270: 53ae 183e b56e 4abd 3bf8 cf3d 1567 e53d
00000280: b2ec e1bd 4b7c ab3d 0fb1 7d3d f488 24bd
00000290: d280 053e ae31 a4bc 897f 103e cfc2 20be
000002a0: d769 e5bd c5a8 8c3d cd46 96bc b672 583d
000002b0: e6aa fa3c 64b1 b8bd 03b2 19bd 1db0 b8bd
000002c0: 6bec 49bd a821 493d 3811 cbbd a19d b9bd
000002d0: 56de 5cbe d947 6c3d 8fc7 5dbd 5132 d5bd
000002e0: e8ee a33c 44f5 33be fd00 e8bc 2ea9 8fbd
000002f0: 15a0 833d 0565 133d 7adf 30be 7ba7 1a3e
00000300: 7600 04be 7c2b 073d 4d8a 94bd 0ab6 123d
00000310: 060e 43bc 9a7f d13d 5f3e 3abe d4b1 3c3c
00000320: f751 e3bd 51fd 903d 6855 c6bd 6a4e a03d
00000330: 11dd cc3d 1a8f 24be f808 b73c ca31 53bd
00000340: 2825 94ba 9040 37bc 0260 02be 343c 983d
00000350: 322c 0bbe 276f 0e3e e067 183e 97e4 9b3c
00000360: fd72 2a3e 2099 83bd 3f2b 03bd 5c8b 0c3e
00000370: ea43 fdbc 360f 133e 319d db3d ec9a 13be
00000380: c1b2 f73d 6180 a8bb 00af 7d3d 71c1 34be
00000390: c3d3 48bd a78f 93bd 77d1 29be b38e 863c
000003a0: b5ce 14be c3bb eabd 7ee1 3e3d 3ce6 7fbc
000003b0: 6cf3 9ebb 7087 133d 6258 e2bd bfc9 2dbd
000003c0: 90fa e2bd 287c abbc 15e3 4fbd 2eba 08be
000003d0: f978 babd 85cb 04be cb50 1b3d e9a0 683c
000003e0: 714c ebbd 756a 633d e0bb e4bd 3f20 bd3d
000003f0: 7782 fb3c 0a5f ae3d 1a7d 97bd 717f 593d
0.04284741 0.0795205 0.1181999 0.13117294 -0.011371221 -0.047471397 0.14224313 0.17622179
0.16442136 0.10260814 -0.13552354 -0.09286036 -0.1288657 -0.13376231 0.04975534 -0.15699884
-0.21404527 -0.3633524 -0.21131374 -0.15178135 -0.114822425 -0.09209105 -0.044360068 -0.123146825
0.0818361 -0.10218534 0.0370574 -0.04731156 -0.05680645 -0.029086197 0.12991984 0.123666875
0.186456 0.20281947 0.1311732 -0.13534594 -0.21329492 -0.1966736 0.03966667 -0.1040119
-0.14591627 -0.29328194 -0.29941124 -0.24622796 -0.22132498 0.01066542 -0.016258476 0.026173472
0.04218381 -0.10660952 0.1717616 0.22328463 0.19373015 0.17009467 -0.019446947 0.21423101
0.31604794 0.3560922 0.15470222 0.13972756 0.12360946 0.19187723 0.13141517 0.09256779
0.084447205 0.11308777 -0.102566905 -0.15867005 -0.15652286 0.078513205 0.09437813 0.11673489
0.059512954 0.10742388 0.106918864 -0.08066443 -0.033463415 0.050707363 0.07655974 -0.15296073
-0.0989133 -0.08462706 0.20634218 0.087286934 -0.16562757 0.014158175 -0.035019286 0.32351717
-0.043861426 -0.11990933 -0.03895081 -0.17574957 0.26716325 0.13781568 -0.15454465 0.0382015
-0.18038961 0.15573642 0.16540527 -0.14911814 -0.13383703 0.058380507 0.22663446 -0.02997839
-0.11741517 -0.07839475 -0.020330714 0.21282099 -0.025227973 -0.24297935 -0.16045095 -0.21325421
0.3263241 0.011964268 -0.16427425 0.007088065 -0.18582083 0.312236 -0.07797964 -0.115495555
-0.043102946 0.025650706 0.13100202 0.07384869 -0.008486876 0.06417629 0.05319834 0.03155794
0.045367785 -0.016828164 -0.09957971 -0.10143623 0.25305215 -0.056268517 -0.06887183 -0.08613418
-0.10831645 0.28017825 0.03593004 -0.18645728 -0.121732585 -0.063044176 0.29378375 0.064712875
-0.17961474 -0.012035247 -0.08063456 0.09670253 -0.016600339 -0.14411855 -0.010501931 0.068157874
0.037518993 0.051650584 -0.046136774 0.066772066 0.1491025 -0.049421985 0.10154768 0.11201302
-0.11031474 0.083733164 0.061936434 -0.04016967 0.13037422 -0.02004322 0.14111151 -0.15699314
-0.11201828 0.06868128 -0.018344307 0.052843772 0.030599069 -0.090182096 -0.03752328 -0.09017966
-0.04929773 0.049104363 -0.099153936 -0.090632685 -0.2156919 0.057685707 -0.054145392 -0.10409988
0.02001138 -0.1757403 -0.028320784 -0.0701469 0.064270176 0.03598501 -0.1727275 0.15102951
-0.12890801 0.033000454 -0.07252941 0.035818137 -0.011905199 0.10229416 -0.18187855 0.011517007
-0.11099618 0.07079566 -0.09684259 0.07827456 0.100031026 -0.16070214 0.022343144 -0.051561154
-0.0011302577 -0.0111848265 -0.12731937 0.07433358 -0.13591078 0.13909589 0.14883375 0.019029899
0.16645427 -0.06425691 -0.032023665 0.13725036 -0.030916173 0.14361271 0.10723341 -0.14414567
0.120946415 -0.005142257 0.06193447 -0.17651917 -0.049030077 -0.07205134 -0.16583811 0.016425466
-0.14531977 -0.11461594 0.046601765 -0.015618857 -0.0048507955 0.036017835 -0.11052014 -0.04242873
-0.11082947 -0.020933226 -0.05075367 -0.13352272 -0.09105105 -0.12968262 0.037918847 0.01419852
-0.114891894 0.055521447 -0.11168647 0.09234666 0.030701859 0.08514221 -0.07396908 0.053100053

model.0.bias f4 [32]
00000000: b52c c1be 8bd8 06bd fc92 fa3b 8285 41be
00000010: 8202 063e 343a 443e c81f 06be 97a5 b6be
00000020: 53dd 59be 285c b5be a4ae 503e f3f9 e9bd
00000030: 5875 44bb 15b7 743e 8710 3dbe 6ca3 c73e
00000040: 5fd8 f43d 1e73 08be 289e b0bd d28e 8fbe
00000050: a3b7 acbe 3864 9ebd 9e90 de3d 66db ec3d
00000060: 1c81 e0bc 42cf 6a3d 4825 843c 5dce 9dbd
00000070: 134e a83d cfb7 87bd 703a ea3d d5d0 abbd
-0.3772942 -0.032921355 0.0076469164 -0.18898585 0.13086894 0.19162828 -0.13098061 -0.3567321
-0.21275835 -0.35421872 0.2037912 -0.11424627 -0.002997717 0.23897965 -0.18463336 0.38991868
0.11955332 -0.13325164 -0.08623916 -0.2803865 -0.33733854 -0.07733959 0.10867427 0.115652844
-0.027405314 0.057326563 0.016131058 -0.07705376 0.082180165 -0.066268556 0.11436927 -0.08389441

model.2.weight f4 [32, 32, 5, 5]
00000000: 37e6 163c ab04 693d 660f 623d d6c0 353d
00000010: b0a6 a8bc 9f3c cb3c 5a6f 033e 1fa5 283e
00000020: f414 fe3d b517 583d cbbb 313c 145a c73d
00000030: f64b 033e fa94 9f3d 354b 1d3d db7a c0bc
00000040: 876e 36b9 598b 2d3d a06e 853c e719 61bc
00000050: fcea 94bc adaf eabc c3af 163d 7cc3 a3bc
00000060: 760a bcbc 5f3e 61bc 2429 78bb 763a 90bc
00000070: bbb5 bfbc 3e45 4bbd fcc0 cb3b 8f5f d33c
00000080: aa37 0b3d 4f02 cabc ca03 9ebb 1177 c53c
00000090: ad21 9a3c 7034 1e3b 8881 e83c aa1c 563c
000000a0: 2246 7c3d 5722 963d c49b 7a3d 0b3a 7e3d
000000b0: 8cd6 483d 7460 213c f430 793d 8b26 a7bb
000000c0: 28d8 503d b811 143d 2917 e33b b00b febb
000000d0: f3cb 6f3d 163f af3c 362e 9bbc 5704 263d
000000e0: 13e3 0a3d f147 683c 4f2f 523d 3142 293d
000000f0: 636a 863c 010f 0c3c 3041 9ebc d181 5b3b
00000100: 6daf 74bb e4d1 3c3d ba29 223d 1d90 6d3d
00000110: d7bc 1e3d 0610 93bb ee79 b13b aa43 813d
00000120: 4271 7d3d db71 443c 0bc9 a13c 2e30 21bd
00000130: df00 353d 5e35 9b3d 6ad1 413d 0f3e 84bc
00000140: 68aa 91bb 6700 673d c1e6 d63d 63d4 b13d
00000150: 9fa5 713c 393b 673d 901a 803d 0a85 ae3d
00000160: aa47 c03d 59f7 663d 6be9 b33a 66eb 863d
00000170: 746f 1a3d f1c0 da3c 409f e6bc b97b 90bd
00000180: d8d0 0cbd 8870 883c 8ba7 21bd 347a d1b9
00000190: 8aeb 2a3b c8a5 8a3c 0418 8b3c 6803 8fbc
000001a0: b171 a3bc 1c1c 91bc a1db c13c cc0f cc3d
000001b0: f07b fa3c 27ae 273d 28d4 2c3d c23e 9b3d
000001c0: e243 a03d 07af 6a3d 374a b73c 402a 28bc
000001d0: d7a6 e93c ffc7 083d f38b 2f3d ad41 49bc
000001e0: c4ab 2bbd 80a4 7a3c c24a 97bc 15d3 8f3c
000001f0: 12fa 52bd 01a1 b93b 4ff4 233d 8b6a 363d
00000200: 26f4 173d 586b c8bc da1c 1139 1a8a 513d
00000210: 0275 5b3d b3d9 8d3d 311f 273d dbc7 f93c
00000220: 83bd 4d3d 6b0b be3d 4a3e 963d 5922 823d
00000230: a8f5 02bd 84ff 29bc 44e0 703c dc93 c33c
00000240: abaa 0e3b 916e 2abd e1f1 5dbd 7b23 1fbd
00000250: e7f6 33bd 005f 6cbd a9ba f43c 5055 3cbb
00000260: 0f76 5c3d 4ff7 6d3c 01ed 3c3b fa55 883b
00000270: 21a1 663d 9e13 a63c a189 ca3c 87aa 043d
00000280: e96d 0f3c b5f0 c83a 06ea 3c3d 23a2 78bc
00000290: aabe 9cbc 5d19 b2bb d030 983c 7387 03bd
000002a0: 0359 aa3c 070e 883b ed59 08bd 201e c6bb
000002b0: f0ec 69bb 4f23 de3c f622 4c3b c543 583c
000002c0: e080 b13d 65a5 a63d 6754 713d a3a5 93bc
000002d0: 3f48 e23d d23e 1b3e 4c05 e23d b90a 163d
000002e0: 9f0e 14bd f4a0 2e3d 72df eb3d 3606 ab3d
000002f0: 38d9 c83c c16c 32bd 8f9d e23c 244e a03b
00000300: 7487 33ba fdc9 ccbb b0da 3ebd 6c65 abbc
00000310: ec49 693b 8b7a 0fbc 5cb3 a9bc 6a18 bbbd
00000320: f06d 6d3a 4a4d 763c a49e 8dba 7b68 b5bc
00000330: 8623 4dbc 2d55 d43c 949a 193d 6eb6 913c
00000340: 0ad1 c7bb a64e c5bc a3ed d03c a234 2e3d
00000350: d4a9 9d3b fa85 043d c307 fb3b 81ae 1f3d
00000360: e9a2 c03c 77b1 0e3d 8e93 7abb cf30 0d3d
00000370: 82fc cebb e0ff 92bc 274f f1bc 8d6b 1dbd
00000380: 34bd dc3b f2cf d23c cd44 ef3b 1335 06bd
00000390: 8597 053d 05d8 3b3c 0822 0cbc c813 27bc
000003a0: bc50 dd3b fcce 48bc 0d81 263c fdf6 eb3c
000003b0: e7d7 9e3c 32bc 893c 83f4 fd3c 8e96 763d
000003c0: 70e0 363d 2a35 923d b34c 593d 3066 383d
000003d0: 6251 bc3d 0fd9 9b3c 2dba c23d 716e 873d
000003e0: 70f2 6f3d ecee 1e3d be9d 183d b54f 49bc
000003f0: bd90 113c f231 fd3c fd9f 1e3d 4150 d13c
0.009210161 0.056889217 0.055190466 0.044373356 -0.020587295 0.02480918 0.12835446 0.16469239
0.1240634 0.052756984 0.010847996 0.09733978 0.12821946 0.07792087 0.0384018 -0.023496082
-0.00017398047 0.04236922 0.016288102 -0.013739086 -0.018178456 -0.028648222 0.036788713 -0.019990675
-0.022954207 -0.013747781 -0.0037866319 -0.017606001 -0.023402086 -0.04962658 0.006218074 0.025802402
0.033988632 -0.024659304 -0.004822229 0.024104627 0.018814886 0.0024140142 0.028382078 0.0130683575
0.06159032 0.073307686 0.061183706 0.062067073 0.049032733 0.009849656 0.0608377 -0.00510103
0.050987393 0.03614971 0.006930251 -0.007752858 0.05854411 0.021392386 -0.018942934 0.040531483
0.03390796 0.014177308 0.05131465 0.04132289 0.016408151 0.008548499 -0.019318193 0.0033494125
-0.0037336007 0.046098605 0.039590575 0.057998765 0.03875431 -0.004487994 0.0054161465 0.06311734
0.06187559 0.011990036 0.019749185 -0.03935259 0.044190284 0.07578538 0.047318853 -0.016142873
-0.004445363 0.056396868 0.104932316 0.08683088 0.01474896 0.056452964 0.062550664 0.08521469
0.09388669 0.056388233 0.001372618 0.065878674 0.037703946 0.02670333 -0.028152108 -0.07054848
-0.034378856 0.016655222 -0.039466422 -0.00039954635 0.0026080334 0.016924754 0.016979225 -0.017457679
-0.019951673 -0.017713599 0.023664298 0.099639505 0.030576676 0.04093757 0.042194515 0.075803295
0.078254476 0.057295825 0.022374256 -0.010263979 0.028521938 0.033393856 0.042858075 -0.012283725
-0.041911855 0.015298009 -0.018468264 0.017556706 -0.051508017 0.005664945 0.040027913 0.0445352
0.037098072 -0.024465248 0.00013839026 0.051157095 0.053578384 0.069262885 0.04080123 0.030490806
0.05022956 0.092795216 0.073360994 0.063542075 -0.031972557 -0.010375861 0.014701907 0.023874216
0.0021769207 -0.04160935 -0.05418575 -0.038852196 -0.043936636 -0.057707787 0.029874163 -0.0028737374
0.053823527 0.014524295 0.0028827789 0.00416064 0.05630601 0.020273026 0.02472383 0.03238919
0.008754232 0.0015330525 0.04612162 -0.015175375 -0.019133884 -0.0054351524 0.018577963 -0.032111596
0.020794397 0.004152063 -0.033288885 -0.0060460716 -0.0035694204 0.027116446 0.0031148768 0.013199751
0.08667159 0.08137015 0.058918383 -0.018023318 0.11048936 0.15160683 0.110361665 0.03663132
-0.036146756 0.042633966 0.11517228 0.08350794 0.02451764 -0.043560747 0.02766302 0.0048921276
-0.0006848492 -0.006249665 -0.046595275 -0.020922385 0.003559704 -0.008757244 -0.020715408 -0.09135516
0.00090572145 0.015033076 -0.0010804725 -0.022144547 -0.0125206765 0.025919521 0.037500933 0.017787185
-0.0060979174 -0.024085354 0.025503939 0.042530663 0.004811505 0.032354333 0.0076608374 0.03898478
0.023515182 0.034837212 -0.0038234922 0.034470376 -0.0063167224 -0.017944276 -0.029456688 -0.038432647
0.006736422 0.025733922 0.007301903 -0.03276546 0.032615203 0.011465077 -0.008553036 -0.010197587
0.006754009 -0.01225638 0.010162604 0.028804297 0.01939006 0.016813371 0.031000381 0.060202174
0.044647634 0.071390465 0.05305166 0.04501933 0.0919521 0.0190244 0.095081665 0.06612862
0.058580816 0.038802072 0.03725981 -0.01228707 0.008884606 0.030907605 0.038726795 0.025550963

model.2.bias f4 [32]
00000000: 5a63 61be 7634 033d ca8e 7dbc 5f6c c2bd
00000010: 72b6 513d b115 9e3d 505c 80bd d914 7ebd
00000020: fa22 813d 3b51 f93b a4d8 e1bd b1fb a9bd
00000030: d00d d7bc fd51 efbd 6f80 1c3e bf96 2cbe
00000040: 122a 1dbd f3e8 14bd 556f 873c b48a f9bb
00000050: fa89 80bd 9e16 a2bc 9572 4a3c 3ef4 1bbe
00000060: de3f 5abe b583 d53c 18cb f1bd d92a 19be
00000070: 6afe bbbd f39c 60bc a593 13be 3aeb 25bc
-0.22010556 0.032032453 -0.015475938 -0.094933264 0.051199384 0.07718981 -0.06267607 -0.0620316
0.063054994 0.0076085604 -0.11027649 -0.082999595 -0.026251704 -0.1168556 0.15283369 -0.1685438
-0.0383702 -0.03635497 0.01653258 -0.0076154117 -0.06276317 -0.019786175 0.01235642 -0.1522989
-0.21313426 0.02606378 -0.11806315 -0.14957751 -0.09179385 -0.013709295 -0.1441179 -0.010126883

model.4.weight f4 [64, 32, 5, 5]
00000000: ee62 353c 4a24 98bc 4f3f 033d 14c9 263d
00000010: f376 e7bc 8b22 f93c d134 223d 2f89 713c
00000020: cc0c f9bc 9e83 e7bc 8fb0 8c3c 2dcb beba
00000030: 5f01 283d aa6d 873d cf9e 873c f98e 6bbd
00000040: 1cb5 4bbd 7496 ac3d 0f52 ef3d f2b2 863d
00000050: 5732 74bd e8dd 4b3d 729f 6a3d f6ef 693c
00000060: 5528 31bd 334a 503c fe19 6a3c 20b5 cabc
00000070: 5e4d bfbc 172e 023d 2995 6dbc e857 0b3c
00000080: e1b9 f63c 259f 653c b3f6 6c3d 0d1b be3c
00000090: d4c9 9d3b 0a07 cbbc 58e3 e2bc c0fb 3f3d
000000a0: 9496 d33d b511 9a3d 9e24 693c e068 30bd
000000b0: 614a 013c b30f 063d 7374 08bd a835 183d
000000c0: 9058 abbc 2fae 25bc 6acb 9d3c 775b fabb
000000d0: 9ff0 16bc a58c 83bc 00cb 18bc 21c1 3dbc
000000e0: a082 7a3c f79a 4dbc f151 63bc bcb6 80bc
000000f0: cf92 c83c dc14 8a3c d378 6a3d f51c 08ba
00000100: 3071 ee3c 9a63 94bc 3d9d ba3b 4d43 09bb
00000110: bdab 963d 930c 143d 4cc4 0dbc c1a7 2d3d
00000120: 1069 9abc 1ec4 84bc 46b2 09bc 2158 cebc
00000130: ec77 0cbd f6c9 e63c ff1a 703d 26dd 8d3d
00000140: 9631 123c 5287 9abc 7f36 803c 71a9 10bd
00000150: 251e dd3c 12f4 833d 58e5 553d 5ba9 b5bc
00000160: 1fef 60bd d8ba 1c3b 6b7a e8bc 32c1 45bd
00000170: d573 1a3d 0b03 8b3c 2d62 20bc 1377 5dbd
00000180: 7f37 fb3b c481 f83a 82a7 2fbd 1840 bcbb
00000190: 8c71 83bc dc8d 9cbc b498 40bc 8325 fdbc
000001a0: f8ac ebbb e881 e4bc 6e2f 7a3c 9942 c0bc
000001b0: 8836 c0bc b192 02bd 7f69 fbbc 1ac9 fbbc
000001c0: da7f 90bc 3bd1 eabc c78f 4f3b dae5 0fbd
000001d0: 32d6 cfbc e66d dcbc 31cf 92bc 9a7e dcbb
000001e0: 7bfa 20bd 2ce9 f9bc bb34 91bc e5a5 a13c
000001f0: 072f c93a 4aca 30bd 62dc 4c3c 0566 393c
00000200: 0a7b 88bb c4b1 3b3d e97a 1cbb 00a6 d13c
00000210: ff98 c3bc f805 a23c 796b 2f3d 0d7e 61b9
00000220: d070 c6bb 88cd 8fbc c5ae 5f3c 33d0 083d
00000230: a0f2 bdbc 25f5 113c 9147 5cbd 5e5d 25bd
00000240: 6030 9dbc d37e 52bd cf65 a23b a172 4d3c
00000250: cfd4 95bc 8203 37bb 7e74 023d 748f 833c
00000260: e0b9 c1bb a7bb 2ebd e3f2 343a bf5c c4bc
00000270: 7e2e 3bbd 5f0a 073c db76 e5bc 7531 0abd
00000280: a585 0ebd 9adb 103b d621 19bd 621e 5dba
00000290: eef0 dd3a 507a 2dbd 5b4b 7fbd 4cb3 c4bc
000002a0: fd07 1fbc 839a 413d 5df0 98bb 3180 34bb
000002b0: 6f34 12bd a089 3bbd 4ee9 58bd f3a0 233d
000002c0: 5c4e 953c 66bb 603d 75c9 97bc 67fb c0bc
000002d0: 587c 01bd 60b5 fcbc 534b 5d3c 663d b8bc
000002e0: 0dc9 02bd 77d8 2bbd 5c84 f5bc b982 473c
000002f0: 74dc 883a 35d9 54bd 622d 0dbd 1f7d c43c
00000300: 025a 963c 3561 433c 12f2 e33c 0974 be3b
00000310: 41c2 18bc 3639 4b3d 2ba8 10bc 3856 06ba
00000320: edf7 4e3c 80fd 0abd daad a3bc 2ad3 2d3c
00000330: 93ab 993b 2ff0 55bc e84d 32bd 1e9f 9ebc
00000340: e650 633b 3ca6 fcbc 1f25 07bd d242 443b
00000350: 0c27 1b3d a306 fa3b 1716 593c 6546 a7bd
00000360: 7362 a5bd 0960 3a3d 1832 4b3d 02af b2bc
00000370: 9b87 773c 3d69 123d 10c9 383d 944c 7a3b
00000380: 38c2 2b3c 1293 2dbc 9d26 0fbd b2ce 42bc
00000390: 5ba4 d13a b057 c0bc 8ad9 c7bc 82eb 52bc
000003a0: 16f6 11bc 2e99 e93b d8c0 a53b 40fa 19bd
000003b0: cd72 8b3a ccd4 c63c 1f4e 44bc d61f 503d
000003c0: fcea 653c 7fd6 9b3c d528 c5bc 6dcf d63c
000003d0: dc4c 2d3d 7c14 663d 8ef5 c43a 456e 293d
000003e0: d1bb 173d 4034 d6ba 7b93 ab3c 0cd6 6ebb
000003f0: 45d5 cc3a d3c4 1fbc 22fb 1cbd d995 40bc
0.01107095 -0.018571991 0.032042798 0.040719107 -0.028254962 0.03041198 0.03960115 0.01474218
-0.03040161 -0.028261002 0.017174033 -0.0014556401 0.041016933 0.06612714 0.016555218 -0.057509396
-0.049733266 0.08427134 0.11685573 0.065771 -0.05961832 0.049772173 0.057280965 0.014278403
-0.043251354 0.012713003 0.014288424 -0.02474457 -0.023352321 0.031782236 -0.014500895 0.008504845
0.03011793 0.014014994 0.05785246 0.023206258 0.0048153196 -0.02478363 -0.027696297 0.046870947
0.10331455 0.075229086 0.014229922 -0.043068767 0.0078912685 0.032729816 -0.03331418 0.037160546
-0.020916253 -0.010112329 0.019262034 -0.007640298 -0.009212642 -0.016058275 -0.009325743 -0.01158169
0.0152899325 -0.0125491535 -0.013874517 -0.015712135 0.024484066 0.01685565 0.057244133 -0.0005192303
0.029106706 -0.0181139 0.005695014 -0.0020944655 0.07356975 0.036144804 -0.008652758 0.04239631
-0.018848926 -0.016206797 -0.00840432 -0.025188508 -0.034294054 0.028172474 0.058619495 0.06926946
0.008922955 -0.018863354 0.015650986 -0.035317842 0.026991913 0.06443037 0.052220672 -0.022175482
-0.054915544 0.0023915078 -0.028378686 -0.04827995 0.037708122 0.016969224 -0.009789032 -0.054068636
0.0076665278 0.0018959572 -0.042884357 -0.0057449453 -0.016045354 -0.019110613 -0.011755157 -0.030901676
-0.0071922503 -0.027893975 0.015270097 -0.023469256 -0.023463503 -0.031878177 -0.030689953 -0.030735541
-0.01763909 -0.028664222 0.0031671391 -0.035131313 -0.025370691 -0.026907872 -0.017921062 -0.0067289593
-0.039301377 -0.030506693 -0.01772534 0.019732425 0.0015349098 -0.043161668 0.012503715 0.011315827
-0.004165058 0.045823827 -0.002387697 0.02559185 -0.023876665 0.019778237 0.042827103 -0.0002150463
-0.0060559288 -0.01755406 0.013652508 0.03340168 -0.023186982 0.008908545 -0.05377919 -0.040372245
-0.019188106 -0.05139048 0.004955984 0.012539537 -0.018289952 -0.0027925675 0.031849377 0.016059615
-0.0059120506 -0.042659428 0.0006902648 -0.023970006 -0.045698635 0.008242219 -0.028010776 -0.033738572
-0.034795422 0.002210355 -0.037385784 -0.00084350083 0.0016932765 -0.042352974 -0.062327724 -0.024011277
-0.009706494 0.047266494 -0.0046673254 -0.0027542228 -0.035694536 -0.045785546 -0.05295687 0.039948415
0.018225841 0.054866217 -0.01852868 -0.023557378 -0.031612724 -0.030848205 0.013506728 -0.022490215
-0.03193002 -0.041954484 -0.02997034 0.012177163 0.0010441677 -0.051964957 -0.03446711 0.023985444
0.018353466 0.011925031 0.027825389 0.0058121723 -0.0093236575 0.049615107 -0.008829157 -0.0005124542
0.012632352 -0.033933163 -0.01998036 0.0106094275 0.0046896427 -0.0130577525 -0.04353133 -0.019362982
0.003468567 -0.030840985 -0.032994386 0.0029947055 0.037879035 0.0076301857 0.013249896 -0.081677236
-0.08075418 0.045501743 0.04960832 -0.021811966 0.015108014 0.035744894 0.045113623 0.0038192617
0.010483317 -0.010594146 -0.034948934 -0.0118901 0.0015994416 -0.023479313 -0.024395723 -0.012873532
-0.008908769 0.007128856 0.005058389 -0.037592173 0.0010639072 0.024271391 -0.011981516 0.05081161
0.014033075 0.019023178 -0.024067322 0.026221955 0.042309627 0.05617188 0.0015026794 0.041364927
0.03704435 -0.0016342476 0.020944348 -0.00364435 0.0015627524 -0.009751516 -0.038325436 -0.011754476

model.4.bias f4 [64]
00000000: 53d0 dcbd 81cd 9dbd 67c6 e33c 875c dabd
00000010: 7a0b 73bd 44e1 223d ff1d 2ebc c266 b43c
00000020: 0c3c c9bc e599 e4bd 10e1 cebc e840 42bd
00000030: 600b dabd 9d98 7abd 51a3 c0bd 15b2 9bbd
00000040: bbb7 84bd 81a2 3b3c 5305 cfbb d2e8 fbbc
00000050: a2b5 81bd af46 31bd 4304 d1bd ca21 57bd
00000060: 3d8d 1abd ba95 f2bd acc8 3abd d2f3 e23b
00000070: eeb8 e4bd 65cc 8fbc 6ea6 49bd 1dce 37bd
00000080: 006c 173d 7c27 c1bd 6850 aebd 2c15 bdbb
00000090: 11b8 f1bc 7ffb e7bb bb32 dfbc 231b 6bbd
000000a0: abf1 adbd c0a9 7ebd 0ec3 08bd 242e 17bd
000000b0: c16e 17bc 7653 97bc 7cc3 c2bc 793b 203d
000000c0: 767f a0bd 8b49 acbd efe7 e3bb 4954 16bd
000000d0: de2d b1bd fbf2 943c de57 2dbd 8876 29bd
000000e0: 628e 81bd 8428 923c 4134 57bd fedf febc
000000f0: 8ab4 dabd 0c04 02bd d898 04bd 84bd cd3b
-0.10781922 -0.077052124 0.027804567 -0.106621794 -0.059337117 0.03976561 -0.010627269 0.022021655
-0.024564765 -0.111621656 -0.025253803 -0.04742518 -0.10646701 -0.0611807 -0.0940615 -0.07602326
-0.06480356 0.011452318 -0.0063177734 -0.030750666 -0.06333472 -0.0432803 -0.10205891 -0.052522458
-0.03773235 -0.11844964 -0.045601532 0.0069260383 -0.11168085 -0.017553518 -0.049230985 -0.0448743
0.03696823 -0.09431359 -0.0851143 -0.005770346 -0.029506715 -0.007079541 -0.02724587 -0.057398926
-0.0849336 -0.062173605 -0.033389144 -0.036909238 -0.009242714 -0.018472414 -0.023774855 0.039119218
-0.07836811 -0.08412465 -0.006955139 -0.036701474 -0.086513266 0.018182268 -0.042320125 -0.041372806
-0.063259855 0.017841585 -0.052540068 -0.031112667 -0.10678966 -0.03174214 -0.032372326 0.0062786955

model.7.weight f4 [64, 1024]
00000000: 54d1 1fbb c411 093d 4a8a 0bbc c225 953b
00000010: 72f9 70bc 1657 c93b 9c6d e1bc 4134 003d
00000020: 6f2a a3bc ae6f e0bc 35ae bbbc ccee 6c3c
00000030: 040d 49bb 7801 e43c f0e9 fb3c e923 3abc
00000040: 2e2a 233c cd6e 47bc 4bd8 153d 2c92 5ebc
00000050: 4515 7a3c a445 3ebc 341b aabc b648 46bc
00000060: bbf6 193d eccc 9b3c 9bd2 f53c 5626 40bc
00000070: faff a43c 5864 393d d53a fe3c 8980 b2bc
00000080: 9160 3c3d dbd6 72bb 0573 83bb 1d05 713c
00000090: 8356 223d 6514 c03c 9771 0c3d fd85 bdbc
000000a0: 48b7 fa3c 3927 b83b 3f41 173c ab80 19bb
000000b0: c4cf 2a3d 899c 453c f781 8f3c 9837 173c
000000c0: 40e1 d0bc 6738 683a 98e6 22bd bfa8 30bd
000000d0: d4a8 fabb fb47 1e3d be87 d6bc 760e 0ebd
000000e0: bc61 393c ff19 c5bb ec8f 683b bb52 fe3c
000000f0: 4fa1 60bc 2c22 3abc cf50 663c 6da1 2d3c
00000100: 42cc 11bc 77d8 043d 5d0f 013d 286c b7bb
00000110: ffb0 3fbc a641 90bc b5bf 13bd bf26 0d3c
00000120: 6eb2 95bb 9f2e 34bb 8e37 083d 1116 dcbc
00000130: 416a 02bd d18c f0bb 2e24 d2bb e427 19bd
00000140: 14d4 533a a244 853c f717 3c38 2830 b43c
00000150: de04 843c abf0 143c a5c7 333d 1621 b6bb
00000160: c819 883c 7be0 04bc c4cf 373a 2d39 d9bc
00000170: fd2a 363d 52dd 333d 5389 2c3d e720 94ba
00000180: 791b d23c 7d04 a5ba c0a0 de3b 44e9 163d
00000190: d4d9 3abd a0eb cabc cc41 e6bc 0992 f23c
000001a0: 254b 193c abab 023d 89d0 3d3c 4431 13bc
000001b0: 4f50 03bd 64d9 173d 0dd0 223c 1087 68bc
000001c0: 4ebf 00bc 3151 fb3c 1172 bbba 670e 923c
000001d0: d6df 663c 1406 e1bc b23f 2d3c 6020 f8bc
000001e0: c275 36bc 97ac babc 3351 fa3b d69c 053c
000001f0: f6df a63c 13ca 8c3b 6a7f cc3c 5322 11bb
00000200: 9a30 03bd d4f1 15bc 7b55 893c 690a a1bc
00000210: bc0e 59bc ba58 9dbc 8dfb a138 1631 f6ba
00000220: 8279 0fbd 52f5 8a3c 9afa f83c 4967 063d
00000230: fd30 77bc 4839 87bc ab27 89bd feb0 27bd
00000240: 1bab 663c f917 a2bc 1483 91bb eedd 47bc
00000250: 33c8 b639 fb1c b9bb 317b a03c 0bb3 2b3c
00000260: e686 8d3c 7768 79bc 73ff 8abc 2dff 843c
00000270: f7d5 233c a9e1 aa3c e745 c83c f996 07bc
00000280: d307 163d 26dc b43b 1825 953b b0ef 7a3c
00000290: 5336 b8bc 1e98 37bd e3be fb3b c824 26bd
000002a0: 9141 02bd 373b 64bc 1c87 0cbd 5888 963c
000002b0: ffa8 aa3b bb05 053c 09d6 8eb6 e020 fcbc
000002c0: 7752 283b 2b11 6f3b f8b5 6dbb 417d 94bc
000002d0: bba8 19bb fcb7 523d 2c39 853c 0bed f83c
000002e0: 5672 a1bc 1596 36bc 0225 a43c fb1c d4bb
000002f0: c26a f0bc 1dbe 96bc 9eb5 703c 66ea 12bd
00000300: 929c 3abc 0c7a e13c b390 b3bc 43c4 51bb
00000310: 971a 8ebc f6d6 833c c154 173d a124 363c
00000320: a22b 32bc a8e4 5fbc b793 c3bc f538 d1bc
00000330: 0bad 1e3c 369b 04bc c079 66bc fdb3 04bd
00000340: fdac 8e3b 2852 01bc 568e 4d3d f417 c7ba
00000350: 91e7 ebbc f87c 383c 458b 27bc 2101 e2bb
00000360: 0024 97bc 3a02 a03c f0c9 abba 45c1 443c
00000370: 374c 053c 52f8 fbbb 9f1f e1bc f137 8cbc
00000380: 6047 4cbd a63e 2dbd 5ef9 583c 6815 593c
00000390: bc58 a6bc 9906 6abc 309f 09bd eb53 17bc
000003a0: 7296 bd3c 0fd8 ac3c 3f52 c1bc fc2f 27bd
000003b0: ee22 e23b 7734 f2ba 5b6b 01bc 5f2d e0ba
000003c0: 4253 16bd e3ba 49bc e734 46bb 858e 38bd
000003d0: 2a4d f7bc 219b 0e3d cbd5 f1bc 9a70 f0bc
000003e0: ccbe ecba 1498 293c 1862 4d3b e5f8 ce3c
000003f0: 2627 05bc d31d 38bd b42e debc 74f8 4e3c
-0.0024386244 0.03346421 -0.008516857 0.00455162 -0.01470791 0.0061444147 -0.027518086 0.031299833
-0.019917695 -0.027397003 -0.022910217 0.0144612305 -0.0030677924 0.027832732 0.030751199 -0.011361101
0.009958787 -0.012172413 0.036583226 -0.013584655 0.01526386 -0.011613283 -0.020764925 -0.012102297
0.037588816 0.019018613 0.030007651 -0.01172789 0.02014159 0.04526171 0.031033913 -0.021789806
0.04599053 -0.0037054333 -0.004011514 0.014710692 0.039633285 0.023447225 0.034288015 -0.02313518
0.030604973 0.00561991 0.0092318645 -0.002342264 0.041702047 0.012061247 0.017518027 0.009229563
-0.025498033 0.0008858502 -0.039770693 -0.04312968 -0.0076495204 0.038642865 -0.026187774 -0.03468176
0.011314806 -0.006015062 0.0035486175 0.031045308 -0.013710334 -0.011360686 0.014057352 0.010597569
-0.0088987965 0.032433 0.031508792 -0.00559761 -0.011699914 -0.017609429 -0.036071498 0.008615195
-0.0045683896 -0.0027493609 0.033256106 -0.02686599 -0.031839613 -0.0073410054 -0.0064130044 -0.03739156
0.00080806133 0.016268078 4.4845012e-05 0.021995619 0.016115602 0.009090583 0.043891568 -0.0055581434
0.016613856 -0.008110161 0.00070118555 -0.026516521 0.04447459 0.04391224 0.04212315 -0.001130131
0.025647866 -0.0012589839 0.0067940652 0.036843553 -0.045617893 -0.024770558 -0.028107546 0.02961065
0.009356295 0.031901997 0.011585363 -0.008983914 -0.03205901 0.037072554 0.0099372985 -0.014192358
-0.007858111 0.030678364 -0.0014300962 0.017829133 0.014091453 -0.027468719 0.010574268 -0.030288875
-0.011136474 -0.022787375 0.007639074 0.008155068 0.020370465 0.00429655 0.0249631 -0.0022145703
-0.032028772 -0.009151895 0.016764393 -0.019658284 -0.013248142 -0.019207347 7.723933e-05 -0.0018782939
-0.03502799 0.016962681 0.030392934 0.032813344 -0.015087363 -0.016506806 -0.06697019 -0.040940277
0.014078881 -0.019786822 -0.0044406746 -0.012198908 0.00034862905 -0.0056492067 0.019589992 0.010479699
0.017276239 -0.01522266 -0.01696751 0.016234959 0.009999744 0.020859556 0.024447395 -0.008275741
0.036628556 0.005519408 0.004551541 0.015315935 -0.022486841 -0.044822805 0.0076826676 -0.04056242
-0.03180081 -0.013930134 -0.034308538 0.01837556 0.005208134 0.008119042 -4.2568468e-06 -0.030777395
0.0025683919 0.0036478739 -0.0036271792 -0.018126132 -0.0023446518 0.051444992 0.016262613 0.030386468
-0.01970784 -0.011144181 0.020037178 -0.0064731813 -0.029347781 -0.0184012 0.014691738 -0.03586807
-0.011389868 0.027524017 -0.021919584 -0.003200785 -0.017346663 0.016093712 0.036946062 0.011117131
-0.010874661 -0.013665356 -0.023874147 -0.025539855 0.009684811 -0.008093646 -0.014067113 -0.032398213
0.004354118 -0.007893123 0.05018457 -0.0015189634 -0.028796943 0.011260264 -0.010226076 -0.006897107
-0.018449783 0.019532312 -0.0013106447 0.01200897 0.008135847 -0.007689514 -0.027480898 -0.017116519
-0.049872756 -0.042296074 0.0132430475 0.013249733 -0.020305984 -0.0142838 -0.03359908 -0.009236316
0.023143027 0.021099119 -0.023598788 -0.040817246 0.0069011366 -0.001847877 -0.007899131 -0.0017103365
-0.036700495 -0.012312624 -0.0030243935 -0.045057792 -0.030188162 0.03481591 -0.02952089 -0.029350568
-0.0018062233 0.0103512 0.0031338986 0.025265167 -0.0081270095 -0.044950318 -0.02712188 0.012632478

model.7.bias f4 [64]
00000000: 9d6d 7a3d 33de 983c ea1d eabc 0eea 2b3d
00000010: 89a0 123d 05cb e13c 51dc 623d 58a6 8d3d
00000020: 0c5d 503d 3ea1 cabc fdf3 91bc b1d7 c93c
00000030: 4e1f 5c3d 3d1d 1dbd a598 68bc 44aa e23c
00000040: 809e 34bb e736 8dbb 6a62 b1bc ed86 833b
00000050: bbd6 673a 3bae 3f3d fa8b 7d3c 844e 54bc
00000060: d557 863d e4ef c93a af73 febb 1706 76bc
00000070: db42 623d a015 f43c b116 40bc 2109 56bd
00000080: 2c6d 25bd 03bd 0f3d b836 7dbd b563 4e3a
00000090: b6bb 2a3a 97f9 673c 5844 313d 9ac0 0fbc
000000a0: c40e 833d 5530 2c3c 420b 0abd 0d82 3c3d
000000b0: 373a 02bd 4fe2 7b3c c0ae 0dbc c77f 283d
000000c0: 7797 1cbd 8e88 d7bb 1e65 11bd 630a bd3b
000000d0: 7c23 c43c e2e3 2dbc b500 7bbb 686b 893c
000000e0: 968c 55bd 4aec 283d 090d adbb c6fe 5fbd
000000f0: c201 413d 1744 cdbc 3e38 22bd e07f 03bd
0.06113969 0.01866064 -0.028578717 0.04197126 0.03579763 0.027562628 0.05538589 0.06916493
0.050869986 -0.02473509 -0.017816538 0.024638982 0.053740792 -0.038357962 -0.01419655 0.02766908
-0.0027560294 -0.0043095234 -0.021653373 0.004013887 0.0008843948 0.04679702 0.015475268 -0.012958173
0.065597214 0.0015406576 -0.0077652554 -0.0150161 0.05523954 0.029795468 -0.01172416 -0.0522548
-0.040387318 0.035092365 -0.061819762 0.0007873134 0.00065129565 0.014158628 0.04327807 -0.008773947
0.06399301 0.01050957 -0.033702143 0.046022464 -0.0317938 0.01537378 -0.008647621 0.041137483
-0.038230386 -0.006577558 -0.035496823 0.0057690605 0.023942702 -0.0106134135 -0.0038299982 0.016774848
-0.052136026 0.041240968 -0.005281095 -0.05468633 0.047120817 -0.025056882 -0.039604418 -0.032104373

model.8.weight f4 [10, 64]
00000000: 6736 13be 755d 343e 8e3c 233e 99f9 8bbe
00000010: 7145 f73d 18a6 70be d2ca 193e c2dd 52be
00000020: 68bc 0f3d 4904 413e e200 753e 8f8c 763d
00000030: 8616 afbe edb4 483e e227 123e e5f5 6bbd
00000040: 03c6 1abe 3291 043e 4e1f 82bd aac2 00bd
00000050: e911 1b3e a538 823e 059d 0dbe 744b b43d
00000060: ec67 0d3e 0b10 6bbd c52a 86be 8df4 36be
00000070: 868b f2bd def4 213e 4386 d53d 3299 a9bd
00000080: cbb5 4ebd 8c04 913d 159c af3d 2fa8 35be
00000090: a8a5 323d cfb6 503d 180d 63be 0694 143d
000000a0: 7a7f 57be 32f5 3d3e 82ea 903e 5470 393d
000000b0: 598a fabd ee4a 2b3e 6327 eabd 7e88 8cbe
000000c0: 7847 2e3e b011 823d 7954 2a3e 884f 0dbe
000000d0: 1132 f03d 9bcb c4bb 29cd 8abe d771 11be
000000e0: ee16 9a3e 22db 23be e5cc abbd a122 623e
000000f0: e760 3abe eee7 203e f33c 563e 3edd 05bd
00000100: 651a 0fbd 01db 883e 8779 e3be dd6d 25be
00000110: 27b4 9b3d 7071 363e 82e7 203e cd46 ab3d
00000120: 895b 43bd c51e 57be 8bfe 3fbd 4ec0 5e3e
00000130: 3f51 7bbd 83da acbe 97ea 7dbd cf20 6dbe
00000140: ec1f 0b3e bbf7 293e b7d1 25bc 70aa 893e
00000150: daa5 50be 631e 1dbe 9a0e 7ebe 593d d33d
00000160: 2443 05be 04d4 323e c536 43be caa9 35be
00000170: 36db 54be 9fbc 643e 3131 dcbd 5377 383e
00000180: 218c 6c3e 8a6d cebd 8056 0bbc 1fda aa3e
00000190: e715 49be e265 b53e a505 63be 6566 c93d
000001a0: 236f bebe 4b18 3ebe 00e5 cdbc ed49 82be
000001b0: 3f4c a23e e02e fabd 99ff 613e db74 50bc
000001c0: cfc4 58be 2cdc 213e aa01 4d3d bd9f 073e
000001d0: 8508 21be 458b cfbd 6c26 063e a605 8abc
000001e0: 052a 0f3e f162 1bbe 41ad 15be 6396 4fbe
000001f0: 15fb 093e ddf6 bb3e 8709 1b3e 824e 02bd
00000200: 1f41 9e3d f1a7 f93d 7a23 3d3e bdb1 61be
00000210: c9cb 6fbe 9a9f 23be 1495 73bd d645 84be
00000220: a7d9 5bbe 224b 8fbe 8b58 ffbd be9f f7bd
00000230: 039d 33bd 7f8f 2e3e 6d44 703c 92d9 6abe
00000240: dd36 6ebe b4f2 683e b654 d93d a2a9 62be
00000250: 3cf8 ff3d 7ef1 a23e dd4c 0cbe 6c30 613e
00000260: a93d 44be 1410 78be 00f6 2ebd 9fdd 703d
00000270: 1f60 2038 e165 bbbd 4a1c 553e d388 f03d
00000280: 5562 203d 48e8 15bd 128a 59be 67ce dabd
00000290: 205c 49be 048c 6cbe 696e a4bd 0ca6 2fbe
000002a0: cc28 4c3e 063d 20be 7ac8 4fbe eef2 953e
000002b0: 70cd e3be e7d2 d3bc 26fe 8b3c 5633 c2bc
000002c0: 3a88 15bd 59cf 843d 4866 033e 6dad 423d
000002d0: f8a2 093e 5671 613d 5c3e 473e 15e5 1f3e
000002e0: 86dc bc3d 67d6 823d ceb4 643e 2328 9e3d
000002f0: dddd 00be 12ca 76be ebb3 2cbd f4d3 883e
00000300: 761c 173e 3619 863c 38ab 833e f1ba f8bd
00000310: a2fc 233e 2214 723e f339 97b9 094d 02be
00000320: 2258 b33d 2117 863d d948 c6bd 7931 c6bc
00000330: 895e 1abd 3f11 423e fd9c 82be 5abe 083e
00000340: a00d 9d3d 56ba 073e 67d9 c93d 6305 0b3e
00000350: 4bb3 1d3e bcaf 21bd fc18 533d 7c4d 36bd
00000360: 6c66 4ebe 83bf 673e 5ddc 593d bc95 953e
00000370: a54d 91bd 2b90 eb3d f28c ac3d 129f 30be
00000380: 1540 153c 7539 3f3d 2d07 e53d 07cf 1ebe
00000390: 81e5 3fbc 2eb5 75bd c5c2 e33d dee7 fcbd
000003a0: aed1 663e f1e4 0c3e 563f 50be 5691 ac3d
000003b0: fef0 3dbd 65ab 4dbe 3197 9a3d 8c0e aa3d
000003c0: 03c0 6bbe 621f ac3d 4b78 37be 55db b33c
000003d0: 8e1f f7bd 9efc 03be 4955 aa3c 8d4c 11be
000003e0: 0177 363d cf0c ac3d bd7c 54be a864 1a3c
000003f0: 87df b93e c94c 38be d340 343e f38f 53be
-0.14376222 0.17613776 0.15941069 -0.27338865 0.12073792 -0.2350086 0.15018776 -0.20592406
0.035091788 0.18849291 0.23926118 0.06019264 -0.34196872 0.19600268 0.14273027 -0.05760755
-0.15114598 0.12946013 -0.06353627 -0.031435646 0.15143551 0.2543384 -0.1382943 0.08803454
0.13809174 -0.057388347 -0.26204506 -0.17866726 -0.11843018 0.15816066 0.10425999 -0.08281173
-0.05046634 0.070809454 0.08574692 -0.17739938 0.043615013 0.05095559 -0.22172964 0.03627398
-0.21044722 0.18550566 0.28303915 0.04527314 -0.12233419 0.16727802 -0.11433294 -0.27447885
0.1701945 0.0635103 0.16633786 -0.1379987 0.117282994 -0.006005717 -0.2710965 -0.14203583
0.3009562 -0.16001561 -0.0838869 0.22083522 -0.18201028 0.15713474 0.20921688 -0.032681696
-0.03493728 0.26729587 -0.44428656 -0.16155191 0.07602721 0.1781671 0.15713313 0.083631136
-0.047694717 -0.21007831 -0.04687361 0.21753046 -0.06135678 -0.3376046 -0.0619913 -0.23157047
0.13586396 0.16598408 -0.010120801 0.26887846 -0.20375767 -0.15343623 -0.24810258 0.103144355
-0.13013893 0.1746369 -0.19063862 -0.1774055 -0.20786747 0.22337578 -0.1075157 0.18014269
0.2310033 -0.10079487 -0.00850451 0.33369538 -0.19637261 0.35429293 -0.22170122 0.09833983
-0.37194166 -0.18563955 -0.02513361 -0.25447026 0.31698796 -0.12215972 0.22070159 -0.012723173
-0.21168827 0.15806645 0.050050415 0.13244529 -0.15725906 -0.101339854 0.13100594 -0.016848397
0.13980873 -0.15174462 -0.14616872 -0.20272212 0.13474686 0.3671178 0.15140353 -0.031813152
0.077272646 0.121902354 0.18470564 -0.22040458 -0.23417582 -0.15978852 -0.059468344 -0.2583453
-0.21469747 -0.2798701 -0.1246806 -0.12091015 -0.04385091 0.17046927 0.0146647515 -0.22934559
-0.23263116 0.22748834 0.106118605 -0.22135022 0.12498519 0.3182487 -0.13701196 0.21991128
-0.19164146 -0.24224883 -0.042715073 0.058805104 3.8236492e-05 -0.09150291 0.20811573 0.11744847
0.039156277 -0.036598474 -0.21244076 -0.106838994 -0.19664049 -0.23100287 -0.080288716 -0.17153186
0.19937438 -0.15648279 -0.2029132 0.29286903 -0.44492674 -0.025857402 0.01708896 -0.02370612
-0.03650687 0.06484861 0.12831986 0.047528673 0.13441074 0.055039726 0.19457382 0.15614732
0.09221749 0.0638855 0.22334597 0.07722499 -0.12584634 -0.24100521 -0.04216377 0.26724207
0.1475695 0.016369443 0.25716567 -0.12145031 0.1601434 0.23640493 -0.0002884414 -0.12724699
0.087570444 0.0654738 -0.09681863 -0.024193512 -0.037687812 0.18951891 -0.25510398 0.13353863
0.076686144 0.13254675 0.09855919 0.13576274 0.15400426 -0.039474234 0.0515375 -0.04450749
-0.20156258 0.2263165 0.05318867 0.292158 -0.07094888 0.11502107 0.08425321 -0.1724818
0.009109517 0.046685655 0.11183009 -0.15508662 -0.011712433 -0.05998724 0.11121134 -0.12348913
0.22540924 0.13759209 -0.2033666 0.08426158 -0.046372406 -0.20084913 0.07548369 0.08303556
-0.23022465 0.08404423 -0.17916982 0.021955172 -0.120665655 -0.12889335 0.02079262 -0.14189358
0.044547085 0.084008805 -0.20750709 0.009423412 0.3630335 -0.17998041 0.17602853 -0.20660381

model.8.bias f4 [10]
00000000: 8ba2 b4bd 3eab 9dbd 4a24 5b3d dfbf 09bd
00000010: 018d 8c3d c311 a03a f0ad 893d d010 b9bd
00000020: 36d9 413a f9cb 3fbc
-0.08820065 -0.076986775 0.053501405 -0.03363025 0.06862832 0.0012212325 0.06722629 -0.0903641
0.00073947327 -0.011706346
